out_gen/model_weights.pth (torch, 56307 bytes, 30 tensors)

embedding.weight f4 [64, 7]
00000000: 5723 ee3e 2135 5bbe d603 71be 68f8 7e3c
00000010: 00e1 ed3e 3058 cfbe b506 9b3c ce18 de3e
00000020: 28d0 6e3d 9a8a 3a3d edbf 503e 4e92 a4be
00000030: 09fb 5bbe bc41 84be 89dc 71be 5593 a0be
00000040: f0a8 96be de8c e1bd 2a4d 5b3f 7f06 55be
00000050: e928 8c3e 80d3 b83e 4a09 6abe 8b02 ebbd
00000060: aa8e b83e 8dbf 73be 7a87 7dbe e46c 453c
00000070: 44e0 5c3e e741 b9be 423b 7bbe de7d 673e
00000080: 9ad7 29be c3b5 123e 8151 51be 7a32 cc3d
00000090: 4d83 8abe bf76 8d3e a642 0ebe c804 993d
000000a0: f3cd 36bd 8477 e83d cc9b e7bd c52d 60bd
000000b0: ee82 1c3d be93 0c3f c150 e6bd cd46 86be
000000c0: 1b5d 3fbd 09ed aebd 3edc 0abd 5431 21bd
000000d0: 65f3 8b3d 027c 523d 5d88 b83d fb17 aa3d
000000e0: 0b25 243f be9a f8bd a425 ffbd aa1e 92bd
000000f0: ec1c 03bd f495 7dbe 91b2 4ebe 4a4e bbbe
00000100: efc4 7abe 2529 85be 3ace 53be a0d6 e03e
00000110: 649e fd3e 505e 8dbd ec7a 863e 631e 19be
00000120: d829 19be 6bb0 15be b9ac 7dbd 442a 553e
00000130: 1f1a 9abe 3a63 64bd 59a2 97bd b7e5 3e3f
00000140: 3f85 1bbd 93b8 54be c870 e7bd f4a3 3f3e
00000150: c7ef 59be 22ab a0be a377 143e 0c67 d1bd
00000160: be39 0f3d ae59 4ebe 4884 083a 07f8 8c3e
00000170: fd43 9bbe 5a51 8dbe b041 b23d c99f 1abe
00000180: 4c79 573e 93d3 80be 9bb5 07be fb39 3fbe
00000190: f2dc 55be 7dd5 b4bd db11 0e3f 3cac 41be
000001a0: 05fe 4b3e aeff a8be 9eeb cdbe 7b87 b8be
000001b0: f932 73be 47b9 9f3e a632 0a3f 2493 0e3e
000001c0: 8ee3 b43d f504 6abe 274c ea3e 168d 1cbe
000001d0: b8d7 18bd a895 f23d 230c 523e a2ea 30be
000001e0: 7b32 d5bd 9b67 3f3f f8cb eebd 3ec1 72be
000001f0: 0e3c 19be f587 e13d bcaf 333e 100d 36be
00000200: f2d6 82be e1e4 52be 79e5 6e3e 411a 063e
00000210: f019 5ebe e868 f83d 8549 d0bd e537 22be
00000220: 0b8f 29be ad58 d43e 050e 7fbe caed 8d3d
00000230: 499a 28be 3112 17be 7e98 8abe a003 953d
00000240: 8ecb 153f 75bc 04be 97ce d33e a066 0dbe
00000250: d6be 9cbe 9a30 9fbe dbd6 593f 593f 06be
00000260: d40c 8a3c 4452 233e 963b 42be 340a 93be
00000270: 5bc8 61be f58b 923f 0550 8dbe 517b 34be
00000280: c901 8a3e e30c 6c3e 4981 adbe 6ccd 8dbe
00000290: 610c 363f 349e 17be bd33 87bd 2fb2 30be
000002a0: 6497 e63a 2905 85be 84fd a2be 0192 f93e
000002b0: 1bd2 d73e 8642 b4bd de8f 9d3e e404 a0bd
000002c0: 452f 2fbe a478 3cbe 3a0a fe3e 37b4 533d
000002d0: 46c3 17bd 7988 da3d ca53 57bd 1b52 e8be
000002e0: ce77 e3be 1856 0e3f acd5 423e 76de 293d
000002f0: a902 033e 1d22 9b3c cabb 0dbe 6c6d 6abe
00000300: f17b 96be 3007 ee3e 7615 7e3e e644 f6bd
00000310: 9690 883e e390 33be dbbe 93be 50df 89be
00000320: dab9 07be a2c6 e73d 56c2 b5be c602 07be
00000330: 6b30 99be 7441 2cbe 3687 67ba 23b0 963e
00000340: 2792 be3e 80e5 d03c a54b 633e d1fd b53c
00000350: 7435 b9bc 7af1 c63d 9791 bbbd 4ea7 69bc
00000360: 6c73 0ebd ee2f 02be c03c a2be 07c2 77be
00000370: fc09 703f 4206 3cbd c3c5 773e 84e2 1f3c
00000380: fcc7 94bd efe0 4a3d b3ad 7fbd 7244 f5bd
00000390: f071 cc3d 7dea 0e3e 1055 9cbe e036 c03c
000003a0: ee25 60be 87ec 7b3e a406 0e3d 86b4 b23d
000003b0: 08fe adbc 0ab7 9bbb b6c9 123f 02d1 24be
000003c0: b1fb 1cbe 3926 01bd a7a3 31bd 5b18 7cbe
000003d0: 2f8e 48be 5831 2c3f 8945 6abe 7ad6 57bf
000003e0: d0e5 a8bd 7a53 d03e 65d7 053e b33d 6ebe
000003f0: 9fab 8abd a411 5cbe 5951 62be 6cf1 193f
0.46511337 -0.21406986 -0.2353662 0.015562154 0.46460724 -0.4049697 0.018924097 0.433783
0.058303982 0.045542337 0.20385714 -0.32142872 -0.21482481 -0.258314 -0.23619284 -0.31362405
-0.29425764 -0.110131964 0.8566462 -0.2080326 0.27374962 0.36098862 -0.22855106 -0.114750944
0.36046344 -0.2380354 -0.24758711 0.012049887 0.21569926 -0.36183092 -0.24534324 0.22606608
-0.16586152 0.14327149 -0.20441248 0.09970565 -0.270533 0.2762966 -0.13892612 0.07471615
-0.044630002 0.11350921 -0.11309013 -0.05473115 0.0382108 0.54912937 -0.11245871 -0.26225892
-0.04671965 -0.085413046 -0.033901446 -0.039353684 0.06833533 0.051387794 0.09010384 0.08305355
0.64119023 -0.1213889 -0.12458351 -0.07134755 -0.032010004 -0.24764234 -0.20185305 -0.36583167
-0.24489187 -0.26007953 -0.20684138 0.43913746 0.49534905 -0.06902754 0.26265657 -0.14952998
-0.14957368 -0.1461808 -0.0619323 0.20816904 -0.30098054 -0.055758692 -0.07404012 0.7456927
-0.03796887 -0.20773534 -0.11300808 0.18714887 -0.21282874 -0.31380564 0.14498763 -0.10224733
0.034967177 -0.20151398 0.00052077 0.2753298 -0.30325308 -0.2760113 0.08703935 -0.15100016
0.21042365 -0.25161418 -0.1325287 -0.18674462 -0.20885065 -0.08829782 0.55495995 -0.18913358
0.1992112 -0.33007568 -0.40218824 -0.36040863 -0.23749913 0.31196043 0.53983533 0.13923317
0.08832465 -0.22853453 0.45761225 -0.15288195 -0.0373151 0.11844951 0.20512442 -0.17277005
-0.10410019 0.74767464 -0.11659998 -0.23706529 -0.14964315 0.1101226 0.17547506 -0.1777842
-0.25554615 -0.20595123 0.23329724 0.13095953 -0.21689582 0.12129384 -0.10170273 -0.15841635
-0.16558473 0.41473904 -0.24907692 0.0693012 -0.16465105 -0.14753033 -0.27069467 0.07276082
0.58513725 -0.12962516 0.41368553 -0.1380868 -0.30614346 -0.31091768 0.8509347 -0.13110103
0.01685182 0.1594935 -0.18968043 -0.28718722 -0.22049086 1.1448961 -0.27600113 -0.17625166
0.26954487 0.23051791 -0.338877 -0.27695787 0.7111264 -0.14806443 -0.06601665 -0.17255472
0.0017592725 -0.259805 -0.31834042 0.48744205 0.42152485 -0.08801751 0.30773824 -0.07813433
-0.17107876 -0.18405396 0.49617177 0.05168554 -0.03705146 0.10670561 -0.05257014 -0.45375142
-0.4442734 0.5560012 0.19026822 0.04147192 0.12793984 0.018937165 -0.13841167 -0.22893304
-0.29391435 0.4648986 0.24812874 -0.1202486 0.2667281 -0.17535739 -0.2885655 -0.26928186
-0.1325449 0.11317183 -0.3549983 -0.13184652 -0.29919752 -0.16821843 -0.00088320987 0.29431257
0.3722088 0.02550006 0.22196825 0.022215756 -0.022608496 0.09714027 -0.091586284 -0.01426108
-0.034778044 -0.12713596 -0.31686974 -0.2419511 0.93765235 -0.045904405 0.24196534 0.009758595
-0.072647065 0.04953092 -0.06242151 -0.119759455 0.09982669 0.13956638 -0.30533648 0.023463666
-0.21889469 0.24601947 0.0346743 0.08725838 -0.021239296 -0.0047520446 0.57339036 -0.16095355
-0.15330388 -0.031530593 -0.04336896 -0.24618666 -0.19585489 0.6726279 -0.22878088 -0.8431164
-0.08246958 0.40688688 0.13070448 -0.23265724 -0.067710154 -0.21491104 -0.22101344 0.60134006

embedding.bias f4 [64]
00000000: 8ea4 593d 7550 d3be 4d31 2cbf bbd6 19bf
00000010: a806 b2be ca08 013e 5125 51bf e970 8d3f
00000020: 3bf7 253d bb5d 20bf da5f fdbe dc80 1ebd
00000030: e4e7 42be ef33 e5bd 0708 f7be 1dee 17bf
00000040: 602d b63e 647d bcbd 6076 0abf 4e9f 38bf
00000050: 459e 9fbf 7d94 cc3e f514 a0be cc06 ddbd
00000060: 7aa1 1d3e b1e0 15bf 2bf2 89bf 826a 633f
00000070: 3114 25bf 2559 2cbf 9263 863f 03b1 993e
00000080: 0ea6 5ebf 9962 a8bf 52fb 51be 3e14 53bd
00000090: 0ff9 c53e 90c0 92be 8a06 03bf aea3 e4be
000000a0: ed37 143e bf64 34bf e287 ef3d 6914 e5be
000000b0: 4ef3 223e 03b8 4bbd d220 0ebf 2fac 45be
000000c0: 78fe 203f 7109 e83d 4d83 3dbf cc49 84be
000000d0: e02c f93d 463f 93bf 46fe 64bf 6f11 c7be
000000e0: 408c 0ebe 4151 fb3d 8857 a1be 08da 18bf
000000f0: 99a5 cbbd 0600 0cbe 00bc d0be e313 3abf
0.053135447 -0.4127232 -0.6726273 -0.6009328 -0.34770703 0.12601009 -0.81697565 1.1050082
0.04051898 -0.6264302 -0.4948719 -0.03869711 -0.19033772 -0.11191546 -0.48248312 -0.5934771
0.35581493 -0.09203604 -0.54086876 -0.7211808 -1.2470175 0.39957038 -0.3126599 -0.10792312
0.1539363 -0.58545977 -1.0777029 0.88834393 -0.64483935 -0.67323524 1.0499136 0.30017862
-0.8697213 -1.315509 -0.20506027 -0.051532976 0.3866658 -0.2866254 -0.5118185 -0.44656128
0.14474459 -0.70466226 0.116958395 -0.44742134 0.15913126 -0.049736034 -0.5551883 -0.19303964
0.6288829 0.11329926 -0.74028474 -0.25837553 0.12166762 -1.1503685 -0.8945049 -0.38880488
-0.13920689 0.12271357 -0.31512094 -0.5970769 -0.099436946 -0.13671884 -0.40768433 -0.72686595

convs.0.bn1.weight f4 [128]
00000000: 98c0 2a40 1aaf 783f ce1e 7c3f b0a2 0d40
00000010: 5df2 4c40 4072 2840 cda8 ae3f c070 e2be
00000020: e794 4740 6725 8a3f bc58 b43f 4d8e d33f
00000030: ef86 0840 c4dc 5d40 44df 823f 6af3 9e3f
00000040: 9382 1740 9f5d c63f 79f2 963f e1c7 3d3f
00000050: 0ab0 293f 2f0b 2540 b7a7 1240 8535 2940
00000060: 3256 0f40 99bb 3040 43ee e33e cef7 9f3d
00000070: 0f3c 5f3f de3a 893f af2e e5be d949 b23f
00000080: 5836 4fbc e685 7e40 937b 3840 98e1 993f
00000090: 6e81 2840 bc36 2840 ff37 d13f ae48 1240
000000a0: 1962 e5bf 296b d23f 9d02 d83f 7c47 bc3f
000000b0: 132f b63f 4ec9 423f 553c e33f 8ef1 4d40
000000c0: 9c41 6abf e4de 3840 651e b0be 9059 c03f
000000d0: e67d d73f 05a5 483f a64e a13f 2ba4 2440
000000e0: cbad a53f ac98 3f40 50f2 5b40 c05a a73f
000000f0: 869f 6840 1348 9b3f 1bf1 1540 7762 983f
00000100: b81d a9be 07be 933f 06b8 593f 33a3 223e
00000110: a505 343f 691d 1a3d 211e 4f3f 0e52 2340
00000120: a89a b7be 73f1 853f 1902 7d3f 1d6e 68be
00000130: d516 16bf e4be 0c3f 14ea de3f 01fa 563f
00000140: 3511 d83f d6da 873e 59ea 363f 73c0 523f
00000150: 1f8b 453f 7b3b ec3f f547 7a3f 53b0 3b3d
00000160: bc7b 94be 27fc 47bf 93c7 c13f daba ee3f
00000170: f36b c93f 2830 843f 9fc1 0940 b82f 5c3f
00000180: 00de aa3f 8ac2 0340 5396 6a3e d7b0 bbbe
00000190: 3b24 0f3e fa6f 783e 4dbe 7e3f 8969 a13f
000001a0: 0fcf 843f 09a8 593f e314 e93e 27a5 803f
000001b0: 20cb 68bf 4de6 753f 6a7c 523f 9728 3e3f
000001c0: 2ee1 ac3f 2ac8 803d 6386 c43f c400 e73d
000001d0: cfe8 953e e4e0 683f a1be 3b3f 68c4 413f
000001e0: 7fcb b33c 4b62 d6be c8d9 a13e cf1e 5c3f
000001f0: 31d7 ab3e e976 bf3e c6a8 4d3f 17a3 6f3f
2.668005 0.97142184 0.98484504 2.2130547 3.2022927 2.6319733 1.3645264 -0.44226646
3.1184633 1.0792664 1.408958 1.6527802 2.1332357 3.4665995 1.0224385 1.2418034
2.3673446 1.5497321 1.1792747 0.74133116 0.6628424 2.5788076 2.2914865 2.6438916
2.239636 2.76145 0.44517717 0.07810937 0.8720102 1.072109 -0.4476218 1.3928787
-0.012647234 3.9769225 2.8825424 1.2021971 2.6328998 2.6283407 1.6345214 2.285686
-1.7920562 1.6438953 1.6875798 1.4709315 1.4233116 0.76088417 1.7752787 3.2178683
-0.9150636 2.8886042 -0.3439819 1.5027332 1.6835296 0.783768 1.2602127 2.57252
1.2943662 2.9936934 3.4366646 1.307457 3.6347365 1.213137 2.342841 1.1905049
-0.33030486 1.1542367 0.8504642 0.15882568 0.7032111 0.037625704 0.8090535 2.5518832
-0.3586018 1.046431 0.98831326 -0.22698255 -0.5862859 0.54978776 1.7415185 0.83975226
1.6880251 0.26534146 0.71451336 0.82324904 0.77165407 1.8455652 0.9776605 0.045822453
-0.29000652 -0.7811913 1.513903 1.8650773 1.5736068 1.0327196 2.1524427 0.86010313
1.3348999 2.0587487 0.22908907 -0.36658356 0.13978665 0.24261466 0.99509126 1.2610332
1.0375689 0.85022026 0.45523748 1.00504 -0.90934944 0.96054536 0.8222109 0.74280685
1.3506219 0.06288178 1.5353512 0.11279443 0.2927918 0.90968156 0.7333775 0.7569032
0.02194762 -0.41871867 0.31611466 0.8598451 0.33562616 0.3739541 0.8033565 0.9360823

convs.0.bn1.bias f4 [128]
00000000: 387b ebbc 2f0f 083e 575e 99bf e062 343f
00000010: df40 883f bbc5 953f bed3 e5be d14b ee3f
00000020: d87a bebf f072 443e 22fc c83f ec31 36bf
00000030: 8b4e 1d3f 452b 693e 9464 9cbf d90c 383e
00000040: 93a8 923f 8539 ffbe 1a28 2040 20a2 443f
00000050: 09e5 163e 7eeb f9bf 09b5 fabf d0cb 173d
00000060: 24ba 57bf 069b f1bf c024 633f 911c cb3e
00000070: f445 ff3e 77d9 123f 43ed b13e 9f59 bebe
00000080: 2785 053f c727 8c3f f984 93bf 0c74 ccbf
00000090: 9b03 02c0 4dd0 893f f735 d03f 8795 473f
000000a0: 3d4e 7a3f c4d3 253e 314d df3d b9cb b4bd
000000b0: 13a8 ea3e 18b2 6b3f db85 173e cdc1 0e3f
000000c0: 6b10 423f 9943 7ebe 8db3 b33f 756e c1bf
000000d0: 9993 18bd 6809 0fbf b4d6 74be c119 703f
000000e0: 64b7 e7bf e703 b9bf 6a24 ddbf 4424 d93f
000000f0: 97ff 6a3f 2a13 50bf 174d 2dbf 4573 583d
00000100: a028 fe3e c8b6 28bd c92a a53e a055 103f
00000110: 5309 af3e a7c6 c1bd 25bc b13d 42a8 8ec0
00000120: 1871 fa3e 649d 383f 9aa1 913f 66dc f83e
00000130: fa5e 993e 6105 ea3e 096d 09be 4f6b 143f
00000140: 3e66 c23f 1fc7 dd3f b1be 913f 47fd 683f
00000150: caa5 373f 967f 33bf 0aff 1e3f 709f e33e
00000160: 957a 1d3f 30cd 013f 898d fa3e 1b94 3fc0
00000170: 0037 16bf bfed 8f3e 5086 51c0 7631 52bf
00000180: 3617 fa3f 7871 1c40 ee64 e43e 1229 f43e
00000190: e70e ce3e deaf ec3e 843c 3d3f 544d 863f
000001a0: cd14 bec0 2cac 2e3f ab0a 0f3f 6fbb a23e
000001b0: cf94 8a3e c8ad 9f3f 6f81 203f a445 ed3e
000001c0: 054a 89c0 5964 723f 5d6c b13f ede3 7c3e
000001d0: 383b f63e 9a96 343f 0681 503e 40dc c43e
000001e0: be16 ea3e fec3 193f 0792 043f 2278 6c3f
000001f0: 501b 053f 3845 c13e a44a ce3e 4ee8 3c3f
-0.028745279 0.13287042 -1.1981915 0.7046337 1.0644797 1.1700968 -0.4488811 1.8616887
-1.4881239 0.1918447 1.5701945 -0.71169925 0.6144797 0.22770412 -1.2218194 0.17973651
1.1457695 -0.4984857 2.5024476 0.76809883 0.14735807 -1.9524992 -1.9586498 0.037059605
-0.84268403 -1.8875434 0.8872795 0.39670232 0.49858057 0.57363075 0.3475133 -0.3717775
0.521563 1.0949639 -1.1524955 -1.5972915 -2.03147 1.0766693 1.6266469 0.77962536
0.9777563 0.16194063 0.10903395 -0.088279195 0.45831355 0.92068624 0.14797156 0.55764467
0.758063 -0.24830474 1.403917 -1.5111834 -0.037250135 -0.5587373 -0.23910028 0.937893
-1.8102841 -1.4454316 -1.7276738 1.6964192 0.9179625 -0.8127924 -0.67695755 0.052844305
0.4964037 -0.04118994 0.32259205 0.56380653 0.341868 -0.09461718 0.08678464 -4.4580393
0.4891441 0.7211516 1.1377442 0.4860565 0.29955274 0.4570723 -0.134205 0.5797624
1.5187452 1.7326392 1.1386319 0.9101147 0.7173735 -0.70116556 0.6210791 0.4445758
0.6151517 0.50703716 0.48936108 -2.9934146 -0.58677673 0.28111073 -3.2738228 -0.8210672
1.9538333 2.4444256 0.44608253 0.47687584 0.40245745 0.46227926 0.73920465 1.0492349
-5.940039 0.68231463 0.55875653 0.31783625 0.27066657 1.2474909 0.626975 0.46342194
-4.2902856 0.9468437 1.3861195 0.24696322 0.48092055 0.705423 0.20361719 0.38449287
0.45720476 0.60064685 0.5178532 0.9237081 0.519948 0.37748122 0.4029132 0.7379197

convs.0.bn1.running_mean f4 [128]
00000000: 49c2 fc3c 7f39 cdbe 698d 42bf 0efd 15bf
00000010: 4910 07bf 6041 233e f6cb 4fbf c988 8f3f
00000020: 2e9d 32bc f3de 55bf e56a 2abf 9fe6 233e
00000030: f1e3 a3be eea9 9dbe 4a28 07bf 7b6e 49bf
00000040: 4941 fa3e 8ecb 9a3c bbad 38bf f752 42bf
00000050: 2b67 95bf c4cb ca3e d321 63be 95a6 58be
00000060: bb74 643e 1c50 12bf 605f 97bf 3ca8 3d3f
00000070: 9515 69bf 994a 49bf 7a50 8b3f 5ab6 873e
00000080: 473c 83bf 70ae a8bf bcb6 8dbe 534b 80be
00000090: ab5c d23e ea55 d1be 38cd 28bf ca94 1bbf
000000a0: ffad cb3d ef60 3cbf 2251 ebbc 92e4 27bf
000000b0: cffb cebb 7bca 9fbe dd24 17bf ac5c b1be
000000c0: afe4 2b3f 56ab 543e 83fd 48bf 6bad d5be
000000d0: 6426 78be da43 8dbf 870b 54bf eada 16bf
000000e0: a054 f5be 3f98 b83d f4ca babe e5e7 39bf
000000f0: c625 85be c2a5 bebe 9236 e1be 549f 66bf
00000100: fca1 88bc 2482 e2bd b866 46be bfe5 2abe
00000110: 4ce6 28be 2fa6 f73c c02d 4cbe 80f0 8d3e
00000120: 1b24 00bd 061d 5fbe 24a4 42be 6dfc 543d
00000130: cf75 a8bd c07e e2bd 9d6a 08be 5f62 59be
00000140: 4f57 ec3d ead1 9b3c dad9 4dbe 1281 48be
00000150: 7c25 93be 405f a93d 368a 81bd 4fbd afbd
00000160: 253e 243d 438a 19be c150 a4be 25a2 2b3e
00000170: c35b 80be d3fe 59be e15b 863e 0d1f 2e3d
00000180: a694 83be a8b6 abbe d749 c5bd 8eb3 e2bd
00000190: e39e bb3d 0c74 0cbe 2494 40be 5906 34be
000001a0: 258b 01bc 3a46 50be 279f 8dbc 36fb 2ebe
000001b0: b9e5 a73c 49f8 8dbd 7732 28be e47e e6bd
000001c0: 2543 343e 0145 623d 96d5 51be 306f 30be
000001d0: bd46 9abd 792b 8abe 142b 51be 94fd 3bbe
000001e0: ef1a 26be fdc4 05bc a442 f8bd a69d 4bbe
000001f0: f0d3 d4bd 3e8f 10be 2c58 03be a1bd 6dbe
0.030854361 -0.4008293 -0.75997025 -0.58589256 -0.52759224 0.15942907 -0.81170595 1.1213619
-0.010901732 -0.8354332 -0.6656936 0.16005944 -0.32009843 -0.3079371 -0.5279585 -0.78684205
0.48877934 0.01889589 -0.7214009 -0.75907844 -1.1672109 0.39608586 -0.22180872 -0.21157296
0.22310154 -0.5715349 -1.1825981 0.7408483 -0.91048557 -0.7862945 1.0883934 0.2650631
-1.025277 -1.3178234 -0.27678478 -0.25057468 0.41086325 -0.4088586 -0.6593814 -0.6077391
0.099452965 -0.7358541 -0.02872521 -0.65583146 -0.006316639 -0.31209168 -0.59040624 -0.34641016
0.6714582 0.20768484 -0.7851183 -0.4173387 -0.24233395 -1.1036332 -0.8283009 -0.58927786
-0.47916126 0.09013414 -0.36482966 -0.7261947 -0.2600538 -0.37235838 -0.43986946 -0.90086865
-0.016678803 -0.110599786 -0.19375122 -0.16689204 -0.16494101 0.03023061 -0.19939327 0.2772255
-0.031284433 -0.21788415 -0.19007927 0.051998544 -0.08225595 -0.11059332 -0.1332192 -0.21228932
0.1154009 0.019020993 -0.20102635 -0.19580486 -0.28739536 0.082701206 -0.0632519 -0.085810296
0.04009833 -0.14994149 -0.3209286 0.16761072 -0.2507001 -0.21288614 0.26241973 0.04251008
-0.25699347 -0.33537793 -0.096332245 -0.110694036 0.091611646 -0.13716143 -0.18806511 -0.17580546
-0.00790671 -0.2033929 -0.017287804 -0.17088017 0.020495282 -0.06932122 -0.16425501 -0.11254671
0.17603739 0.05524159 -0.20491633 -0.17229915 -0.075330235 -0.26986292 -0.20426589 -0.18358451
-0.16221212 -0.008164641 -0.12122086 -0.19884357 -0.10391986 -0.14117143 -0.12826604 -0.23216869

convs.0.bn1.running_var f4 [128]
00000000: 374e f53d 63a8 8d3d e517 d43d 8c0c bd3d
00000010: 4ca8 c83d 6c77 553d a9d7 843d 1ce0 d83b
00000020: 8878 173e 1949 a73d 03b8 953d 0f12 1d3e
00000030: c5f3 213d 50db ce3d f43e 353d 4872 ba3d
00000040: 634e a93d 73ab 2e3e a7e0 7a3d 817a 093d
00000050: ae50 a33d a541 4f3e 4682 ab3e d233 333e
00000060: 6658 f53d 96d8 923d a359 223e e4db 5e3d
00000070: 0443 d63d 8c3a 403d 4844 753c 51f1 613e
00000080: 6f06 a83c 28d5 0b3d cc30 043e 63b6 bd3e
00000090: 3bc3 d33d 3114 d83d b67f 893d 64ec a03d
000000a0: d5fd 933e 00be c83d ce44 ca3d 32d4 b83d
000000b0: 2ae2 d73d 8bb9 ac3d 6beb 8a3d 3468 983d
000000c0: 8f9e 213d c841 f73d 8f39 303d e5d3 ea3e
000000d0: 9d07 423e db20 333d 9c00 893d 2b1d e33d
000000e0: 03da e33e 13d4 323e 6f34 283e dff7 433d
000000f0: 4f6c f43d e4c7 8f3e 4bb0 8e3d 2306 ac3d
00000100: d53b 023d 7a7f c13d d7b2 853e 4874 543e
00000110: 0136 4e3e 9aa4 0f3d ac4f 883e 0546 f13e
00000120: 7b9a 1e3d ec5e 9b3e 6237 753e 6d17 be3d
00000130: 5900 7b3d 8902 d23d b490 fa3d f448 963e
00000140: 4fcd 063e 2a95 ac3d 75e0 873e 7c45 7d3e
00000150: a3a0 073f 06be ea3d b564 163e 81cb e83d
00000160: 6a6f 513d 58e6 2a3e 9af9 333f 3670 3b3e
00000170: 1848 d43e fd09 943e 1047 d63e fcc1 bc3d
00000180: be48 d13e 7708 343f 850e b73d 7253 463e
00000190: c822 b33d d740 1c3e 9edb 703e 6a06 553e
000001a0: 93b5 e53d fba8 903e 095d 343d 62e4 453e
000001b0: 1a6e 683d 346a 823d fcd3 3d3e 35ac c33d
000001c0: 8e48 563e 5797 ab3d eb71 8a3e 700d c13e
000001d0: 6cd6 c33d e1e8 e93e ec20 8f3e 3b24 763e
000001e0: 55b8 c83e 1b39 193d 8e5e 063e 1984 823e
000001f0: 4752 db3d 90c5 683e 6801 f63d cd77 b03e
0.11977809 0.06916883 0.1035612 0.09230909 0.09797725 0.052115843 0.064864464 0.006618513
0.14792073 0.08168239 0.07310488 0.1533892 0.039539117 0.10100424 0.04424949 0.09103829
0.08266904 0.1705759 0.0612494 0.033564094 0.07974373 0.20239885 0.33497828 0.17500237
0.11979751 0.07170217 0.15854506 0.054408923 0.10462001 0.046930835 0.014969893 0.22064711
0.02051088 0.03413883 0.1290924 0.37053213 0.10339972 0.10550726 0.06713812 0.07857588
0.28904596 0.098018646 0.09876405 0.09024848 0.10541184 0.08433827 0.06783184 0.0744175
0.039457854 0.12073094 0.043023642 0.45864788 0.18948217 0.043732505 0.06689569 0.11089548
0.44502267 0.17463712 0.16426252 0.04784381 0.11934721 0.28082192 0.06967219 0.08399608
0.03179534 0.09448142 0.26113006 0.20747483 0.20137788 0.035069086 0.26623285 0.47123733
0.038721543 0.30345857 0.23946908 0.09281812 0.06127963 0.1025439 0.12234631 0.29352534
0.13164257 0.08426888 0.26538435 0.24733537 0.5297949 0.11462025 0.14686854 0.1136694
0.051131643 0.16689432 0.70302737 0.18304524 0.41461253 0.2891387 0.4185109 0.09216687
0.4087581 0.70325416 0.08938316 0.1936777 0.08746868 0.1525911 0.23521277 0.20803228
0.11216273 0.28253922 0.044034038 0.19325402 0.056745626 0.06367913 0.18537897 0.0955433
0.20926115 0.08378475 0.27040038 0.37705564 0.09562382 0.45685485 0.27954805 0.24037258
0.39203134 0.037407976 0.13122007 0.25491408 0.107090525 0.22731614 0.12011987 0.344664

convs.0.bn2.weight f4 [64]
00000000: 71c7 5f3f 4b02 643f e47a 8b3f 549b 793f
00000010: 6b38 6e3f 33d5 833f fbbb 7c3f 78c4 a83f
00000020: 8d2a 8e3f 16f6 b23f 58c7 963f a77b 833f
00000030: ec73 693f e259 893f fb9a 973f b2c5 903f
00000040: 6df6 9a3f bf6c c43f 81d0 723f 1545 893f
00000050: 81dc b53f 5434 b83f 962d c73f 898e 893f
00000060: f512 8c3f 094a bb3f 1585 983f d380 993f
00000070: c074 2a3f f99a 703f 4bd9 983f 19ad 803f
00000080: f073 473f cb6f 6e3f f7d3 943f 572a 993f
00000090: d0de a43f ca72 5e3f 4261 913f fca9 a23f
000000a0: 6637 0a40 def2 9d3f 250c 593f b6eb 863f
000000b0: 2893 773f 1965 553f 6b2f 873f 3e4f 833f
000000c0: 5d63 b73f 2554 903f 552e 443f d94d 933f
000000d0: bf28 493f b2e7 973f 8182 923f 69b4 613f
000000e0: cb88 993f 5ef5 a23f f5d8 a63f e4c3 8c3f
000000f0: 7f49 7d3f 7b89 613f 1511 9c3f 0660 b03f
0.874137 0.89066 1.0896878 0.97502637 0.93054837 1.0299438 0.98724335 1.3184958
1.1106735 1.398135 1.1779585 1.0272111 0.9119251 1.0730555 1.1844171 1.1310332
1.2106453 1.5345687 0.948494 1.0724207 1.4207917 1.4390969 1.5560787 1.0746623
1.0943285 1.4631969 1.1915613 1.1992439 0.66584396 0.9398647 1.1941313 1.0052825
0.7791128 0.9313933 1.1627187 1.1966046 1.2880497 0.86893904 1.1357806 1.2708125
2.1596313 1.2339742 0.84784156 1.0540683 0.9670892 0.8335739 1.0561346 1.0258558
1.4327198 1.1275679 0.766332 1.1508132 0.785778 1.1867583 1.1446077 0.8816591
1.1994871 1.273113 1.303496 1.0997281 0.9894027 0.88100404 1.2192713 1.3779304

convs.0.bn2.bias f4 [64]
00000000: fdaf d7bd ebdb adbd e094 edbe 6256 06bd
00000010: c22d 79bd 0b26 893d 5742 95bd ed9d 903e
00000020: 81a2 7cbd 4f1f dbbd 4ffc 4dbc f43e fdbd
00000030: a37c 27bd 0523 413d ab2b a0be 9f70 54bd
00000040: a096 b33d f41b 7f3d ccd4 1dbe f4d2 27be
00000050: 104a f2be 364a b53d 0e2d 363d bcd0 03bc
00000060: 352b a1bc ee3a 153d 0a0c 9fbd 6db9 a63d
00000070: 27dd 8fbc 52d6 eebd 1f0a 393e 8b14 9dbd
00000080: 6dcd 44be 4df0 2dbe 9fc4 5cbd 969f 8dbd
00000090: cf55 f63c 891e 5cbd defb 5f3d 7316 0a3d
000000a0: 16e0 303e 94d2 21bd c721 b5bd b790 c2bd
000000b0: 1ea4 51bd ada2 cbbd 2bd8 09be 7021 93ba
000000c0: 61c6 c8bd 138a 403d ec55 c6bd 85e9 0bbd
000000d0: 0b25 10be 4948 f3be b456 5abd 5c20 6ebd
000000e0: e7ef 64bd a30f 39bc 13ea 913b cf3c 67bd
000000f0: 1172 813d 42c3 76be 186d 65bc 7d92 d5bd
-0.10531614 -0.08489212 -0.46402645 -0.032797225 -0.060834654 0.06696709 -0.07288044 0.28245488
-0.061678413 -0.10699331 -0.012572362 -0.12365523 -0.040890347 0.047152538 -0.31283316 -0.051865216
0.08768964 0.062282518 -0.15413207 -0.16389066 -0.4732213 0.08852045 0.04447656 -0.008045372
-0.019673923 0.036433153 -0.07765968 0.08140836 -0.017561508 -0.11661972 0.18070267 -0.07669934
-0.19218989 -0.16986199 -0.05389845 -0.06915204 0.030070214 -0.053740058 0.05468356 0.033712815
0.17272982 -0.039507464 -0.08844333 -0.095002584 -0.051181905 -0.09943137 -0.13461368 -0.0011225175
-0.09803463 0.047006678 -0.09684357 -0.03415825 -0.14076631 -0.47516087 -0.053305343 -0.05813633
-0.05589285 -0.011295232 0.0044529526 -0.056454476 0.063205846 -0.24097922 -0.014003061 -0.10428331

convs.0.bn2.running_mean f4 [64]
00000000: c489 8740 4983 8840 0a25 1e40 8090 ba40
00000010: f172 b140 ba42 8040 e6e9 4e40 bc70 0540
00000020: 8584 1e40 522f d140 ba91 3841 37a5 5240
00000030: b12d 9340 b4ac 9940 ea41 0e40 d474 b940
00000040: b21c 4141 288c ee40 d2ec 5041 c66d 0d41
00000050: 516e c840 00a1 3140 9a85 4240 91ae 8c40
00000060: b409 5b40 d42d f53f 0d94 0441 f901 b93f
00000070: 5646 6d40 c226 bc40 b515 d33f 38fe 0b40
00000080: 0d36 5f41 2da5 8a41 ccb1 3b40 cbf1 0040
00000090: eafa fa3f c297 ba40 6aef 1441 1098 0a41
000000a0: bbd4 cc3c 020f bc40 737f ae40 82f7 9040
000000b0: ddec 9840 fe21 3241 fb57 b240 a377 a940
000000c0: 33b6 a83e afee a140 9581 6641 4c31 0e40
000000d0: b643 9c40 0fb7 8d40 554d 6f40 4d2b ba40
000000e0: 2cc0 f63f 42ea 2d40 1945 3240 7c9c 2841
000000f0: d8ab b640 d433 5640 572b 6740 8ec7 c240
4.235567 4.266026 2.4710107 5.830139 5.545281 4.0081453 3.233026 2.0850058
2.4768384 6.5370264 11.535578 3.291334 4.5993276 4.802332 2.222773 5.7955112
12.069506 7.454609 13.057817 8.8393 6.2634664 2.7754517 3.0394044 4.3963094
3.4224672 1.9154611 8.286145 1.4453727 3.707418 5.879731 1.6491 2.1873913
13.950696 17.330652 2.9327269 2.0147579 1.9607823 5.831025 9.308451 8.662125
0.025003782 5.876832 5.453058 4.5302134 4.778914 11.133299 5.57324 5.295854
0.32951507 5.060386 14.406636 2.2217588 4.8832655 4.428596 3.739095 5.8177857
1.9277396 2.717423 2.7854674 10.538204 5.708477 3.3469133 3.6120203 6.0868597

convs.0.bn2.running_var f4 [64]
00000000: ea85 2841 99ba 7b40 7f3b 6540 3e73 4541
00000010: 0a9a 8341 6c66 a140 db39 9940 772c 7340
00000020: ebc0 3141 d6e7 0041 1b53 3941 77e7 d940
00000030: a751 a440 d812 9a41 7d82 5740 df4b f740
00000040: d158 8942 dcf4 1142 4663 8740 0725 a740
00000050: 3018 6240 1003 0842 bed1 e141 38e6 4441
00000060: b18d 2341 00cc db40 d1e6 5540 c64e b93f
00000070: f747 ff3f d243 a440 9bac d03f 283e dd40
00000080: d0d7 df3f 619a 1043 b7cf 5d41 a54b 1c40
00000090: dc04 1841 d5b5 5641 41c6 2041 233b f141
000000a0: a2c8 fd39 f0ec 5a41 078e 5f41 29b7 ec40
000000b0: 907c 2140 0eab 3941 d7cb 5a41 4191 9741
000000c0: a5ce 0c3e 7a59 ac41 c1df 2140 8773 5140
000000d0: 616e 1141 bc51 8040 f572 9a40 ca62 6941
000000e0: 8eed 2f40 d753 5141 58a3 8941 3a11 e740
000000f0: ae90 a141 a22a b340 b8d0 6e41 75e7 0d41
10.532694 3.933264 3.5817564 12.340635 16.450214 5.0437527 4.7883124 3.799589
11.109599 8.056601 11.582789 6.809505 5.1349673 19.259201 3.3673394 7.7280116
68.67347 36.48912 4.2308683 5.22327 3.5327263 34.00299 28.227413 12.306206
10.222093 6.8686523 3.342213 1.4477165 1.9943837 5.133279 1.6302675 6.9138374
1.7487736 144.60304 13.863212 2.442117 9.501186 13.419393 10.048402 30.153875
0.00048405404 13.682846 13.972175 7.3973584 2.5232277 11.604261 13.674766 18.945925
0.13750704 21.54369 2.5292819 3.2726762 9.089448 4.0099773 4.826533 14.586618
2.7488742 13.082969 17.204758 7.220853 20.195644 5.598954 14.925957 8.869008

convs.1.bn1.weight f4 [128]
00000000: 2a05 0340 e7c2 6b3f b5ce 903f 0442 1040
00000010: 60ae 3a40 6437 973f 5933 9f3f b327 5040
00000020: 0722 1040 3bea 0140 96eb 5040 8be8 993f
00000030: 2b4a 9f3f cba1 1640 4e6b 9f3f 5912 ea3f
00000040: 6eff 8c3f 4474 3140 d96b 5d40 ede2 be3f
00000050: 7075 993f 03b0 2940 3d3a 2440 9ad8 0240
00000060: 1f44 d43f a9a8 e23f 7444 db3e 6d92 b93f
00000070: c0d4 363e c60e ea3f 3b5d fe3f da04 b13f
00000080: 51fd 26be 8c08 85bf 2e80 1b40 c3f6 9f3f
00000090: 8cd6 f23f 205c 0e40 37fc 3b40 1b07 6940
000000a0: 14b2 1e40 bd49 3040 a826 953f f51c f93f
000000b0: df6d a13f 392f 6e3f b94a 3040 b612 2c40
000000c0: 6760 e93f c3c2 b53f 6a09 b73f d875 b33f
000000d0: 02d1 a23f 0fc8 943f 4f0f b63f e404 2640
000000e0: 3700 833f 86de 3140 ff4b 5740 8633 3140
000000f0: 01aa 1e40 a436 a03f 5fc3 2640 d5af ef3f
00000100: a7fd 5fbe 2e8c 643f 6d99 bdbd 5620 cabc
00000110: 4fe8 0ebe a3b3 0740 cf5a 2f3f 7c25 cabe
00000120: f498 2abe 4766 aebd e3f7 a6bd 5214 75be
00000130: 1928 c83f 7460 bcbd fac0 b4bd 04ca aabd
00000140: 37f5 0740 be48 30be 4bb6 a73c f096 f2bd
00000150: 3c8a bcbd 9ad7 243e 00ad 27bf 13d9 eb3e
00000160: 44db 833f f1ae ee3f 80e0 eb3e ec9f 673f
00000170: 6c8c ef3f 6a8e f83c 8051 723f 1b03 373f
00000180: acb2 533f e773 453f 8e69 d9bd a620 b63c
00000190: 4303 cb3f 588f 4abc bfc3 22be 4caa f3bd
000001a0: 7570 bebd a6c5 35be 30c7 703f 087d 18be
000001b0: fe9d 8b3f 3806 623f a37d 04be 6840 2cbe
000001c0: 0e9d d13f 4f63 ed3f 232a 543f 8125 39be
000001d0: fa2c e53e 1e12 b9bd a202 263f 4da1 50bd
000001e0: 5f25 5e3f 9506 10be d4ee 10be 9d7b 393d
000001f0: 2064 b33c 74b3 233f ba94 d1bd 171b c9bd
2.0471902 0.9209427 1.1313082 2.2540293 2.916893 1.1813779 1.2437545 3.252423
2.2520769 2.0299213 3.264379 1.2024091 1.2444509 2.353625 1.2454622 1.8286849
1.1015451 2.7727213 3.4597075 1.4913002 1.1988964 2.651368 2.5660546 2.0444703
1.6583289 1.7707721 0.42825663 1.4497811 0.17854595 1.8285758 1.9872202 1.3829606
-0.1630757 -1.0393233 2.4296985 1.2497181 1.8971725 2.2243729 2.937269 3.6410587
2.479619 2.7545006 1.1652422 1.9461962 1.2611655 0.93040806 2.7545607 2.688642
1.8232545 1.4200062 1.4299748 1.4020338 1.2720034 1.1623553 1.4223422 2.5940485
1.023444 2.7792068 3.3640134 2.7687697 2.4791262 1.2516675 2.6056745 1.8725535
-0.21874104 0.892764 -0.09257779 -0.024673622 -0.13955806 2.1203392 0.6849794 -0.39481723
-0.1665991 -0.085156016 -0.081527494 -0.23933533 1.5637237 -0.091980845 -0.0882587 -0.08339313
2.1243417 -0.17215249 0.020472666 -0.11845195 -0.092060536 0.1609787 -0.6549835 0.46064052
1.030129 1.8647138 0.46069717 0.90478396 1.8714728 0.030341346 0.9465561 0.71489114
0.82694507 0.7712998 -0.10615836 0.022232365 1.586037 -0.012363277 -0.15894984 -0.11897716
-0.09298793 -0.17751178 0.94053936 -0.14891446 1.090759 0.8829074 -0.12938552 -0.16821444
1.6376054 1.8545932 0.82876796 -0.18080713 0.44760877 -0.09036659 0.6484777 -0.05093508
0.86775774 -0.14065011 -0.14153606 0.045283902 0.02189833 0.639457 -0.102334455 -0.0981962

convs.1.bn1.bias f4 [128]
00000000: b6c7 313d 1a85 81bd 9b12 e5bf 9d91 7c3d
00000010: 1b9e c43e 0315 803f c2ac c8be cd84 bb3f
00000020: 5ef6 8cbf 4db3 81bf 7bf2 51bf ca58 08bf
00000030: 46ca ec3e 065d 423e 22a3 dabf e8d7 07bf
00000040: 8497 743f 28be 6dbf 2e8e 85be 7b2f 99bf
00000050: dce4 abbf cd59 b3bf 5802 d4bf 2c98 973d
00000060: 2bfc 00bf 4ea7 96bf e11f 00bf 5d9e 003f
00000070: 0666 6f3f 0836 c5be f90a 933f 94a2 d4be
00000080: a8fb 23be 07c5 86bf 35c2 85bf c834 80bf
00000090: d9f6 5bbf 8d98 3e3f bf56 5ebe 8278 abbf
000000a0: 7a79 cdbf 2767 98bf 79d6 053e 7301 38bf
000000b0: 2ab0 843d 13d7 ad3d 72f5 acbf bf1a 783e
000000c0: 540b 96bf 2bcc 043f e645 243d 8d0a 71bf
000000d0: a251 0d3c 0c49 f3bf c3c4 51bf 02fa 9e3e
000000e0: f8b8 84bf f4d2 babf 62ce d6bf 2408 30bf
000000f0: bc3c 803f d5d8 4bbf cf9a 95bf 34fd 6ebf
00000100: 29c9 f73e d1a1 fa3d ded1 353f 92f7 f23e
00000110: f220 053f 135a 463f 2c2d 8b3e 141b a33e
00000120: bd47 de3e 5bee 473f 6020 0b3f 1e0c 1c3f
00000130: 4d3e 233f b34a 003f 0643 1d3f 0c03 203f
00000140: d903 623f 0334 7a3e 004b 0a3f 0574 df3e
00000150: 0d3d e43e 481c 833e c8a0 493f dca8 7e3e
00000160: 7959 c6bc c1b3 10c0 f5a4 48c0 caeb adbc
00000170: 9a5d f2be 8365 cd3e 2705 c63e 20a0 65be
00000180: f857 a4bf d48c 8ec0 b4e6 ee3e bc66 f73e
00000190: d332 b8bf 9a6e 0e3f b31f 163f 263c 2d3f
000001a0: 0dbe 1fbe 9c33 ef3e b0c4 833e 3b0b 043f
000001b0: 1422 d2be fc07 ef3d 90d6 123f a5b9 263f
000001c0: 336b ddbf 45df 723f 0d4a 64bf abc4 223f
000001d0: 0b74 b53e ee5f 203f c338 dc3d d1ad 163f
000001e0: 79aa b93e 23d9 173f d437 223f 0a93 c33e
000001f0: bbc5 fb3e 5613 54be 7c11 013f ebfc 453f
0.04340335 -0.06324215 -1.7896303 0.061662305 0.38401875 1.0006412 -0.39194304 1.4649903
-1.1012685 -1.0132843 -0.8201062 -0.5326048 0.46248072 0.18980798 -1.7081034 -0.5306382
0.95543694 -0.9286828 -0.26085037 -1.1967615 -1.3429217 -1.401178 -1.6563215 0.07402071
-0.5038478 -1.1769807 -0.50048643 0.50241643 0.9351505 -0.38517785 1.1487724 -0.41530287
-0.16013968 -1.0528878 -1.0449892 -1.0016108 -0.85923535 0.74451524 -0.21712779 -1.3396151
-1.6052697 -1.190648 0.13070096 -0.7187721 0.06478913 0.08488288 -1.3512404 0.24228953
-1.1722207 0.51874036 0.040105723 -0.94156724 0.00862542 -1.9006667 -0.8194086 0.31050116
-1.0368948 -1.4595628 -1.6781733 -0.6876242 1.0018535 -0.79627734 -1.1687869 -0.9335511
0.4839566 0.12237895 0.71023357 0.47454506 0.52003396 0.7748119 0.271829 0.31856596
0.43414107 0.78098077 0.54346275 0.6095599 0.6376694 0.5011398 0.61430395 0.6250465
0.8828712 0.24433903 0.5402069 0.43643203 0.44577828 0.25607514 0.7876096 0.24869102
-0.024212586 -2.2609713 -3.1350682 -0.021230597 -0.47337037 0.4011651 0.38675806 -0.22424364
-1.2839346 -4.454691 0.46660388 0.48320568 -1.439051 0.55637515 0.5864212 0.67669904
-0.15599842 0.46719062 0.25735998 0.51579636 -0.41041625 0.11671445 0.57358646 0.6512702
-1.729834 0.9487193 -0.8917549 0.6358134 0.35440096 0.6264638 0.10753014 0.5885897
0.36262873 0.593157 0.63366437 0.3819812 0.49174294 -0.20710501 0.50417304 0.7733905

convs.1.bn1.running_mean f4 [128]
00000000: 236e 533f 0e53 203f bd41 de3e 343d 1b3f
00000010: 791d 1c3f 2b16 7e3f 2c06 023f 2129 de3f
00000020: 9356 643f 0a3c 183f c76f 213f 8a5a 6c3f
00000030: 6a8f 2a3f 5d36 4a3f dd62 083f b5a1 103f
00000040: 17d7 9d3f 6e53 8b3f d4a1 fb3e e7b1 f93e
00000050: da39 ce3e 6550 9a3f aa5c 7a3f eae6 553f
00000060: b142 813f df18 423f d99e ea3e d21d a83f
00000070: 4f01 de3e a8cd f23e 64a1 ce3f 5cd6 7b3f
00000080: 978c a33e 5863 933e e263 4a3f 5425 5e3f
00000090: a996 923f f7a4 253f 7f15 243f 3166 343f
000000a0: 8dd2 8b3f 845b 213f d062 4a3f 6184 133f
000000b0: d444 583f 92fb 253f f290 153f 2a0b 3a3f
000000c0: 8344 9a3f 04d1 863f df30 cf3e f4a9 513f
000000d0: 2300 2f3f 4492 b03e 857f 0c3f da7f 143f
000000e0: a3b7 4b3f e593 813f 1411 553f 8b8a 0e3f
000000f0: 0b89 4d3f da3e 243f 9d49 3b3f ba76 123f
00000100: 3f74 1a3e 9200 ec3d a0aa ab3d 2586 e43d
00000110: 791d c53d 547e 5b3e 2e7e f03d 2fac 083f
00000120: 1d6d 123e bc2d ba3d cae2 b13d 77c5 813e
00000130: 501c 273e bd61 f03d 6bad d63d 7277 b93d
00000140: 5be8 a23e c229 9f3e d139 943d f2a4 ab3d
00000150: 6e36 9f3d c1fd 8a3e 367b 5d3e b6a6 143e
00000160: 971d 533e ed08 263e 4619 903d c43b ca3e
00000170: b13a 8f3d 60f1 983d 4644 fe3e ab8f 5c3e
00000180: 2035 493d d0b9 6b3d 3552 fc3d 357f 013e
00000190: 9d9f 813e 9b91 d83d 921b be3d 5974 c93d
000001a0: 43e7 7b3e 3a21 c43d 876b 3c3e 062c db3d
000001b0: 431d 7a3e 3f8d 2b3e fae2 c13d b11a e73d
000001c0: 5420 cc3e 20b7 8c3e ce75 913d 3c9c 043e
000001d0: d149 173e 22ed 923d 42cc fe3d ac79 b23d
000001e0: 6bef 353e eaf9 203e cf51 fb3d 6693 a33d
000001f0: ae1a 023e d42b db3d 7685 e93d 0f16 bd3d
0.8258993 0.6262673 0.4340953 0.60640264 0.6098247 0.99252576 0.5079067 1.7356302
0.891946 0.5946661 0.63061184 0.9232565 0.6662508 0.789892 0.53275853 0.56496745
1.2331265 1.0884836 0.49146903 0.4876854 0.40278512 1.2055784 0.97797644 0.8355547
1.0098478 0.758192 0.45824316 1.31341 0.43360373 0.47422528 1.6143003 0.9837396
0.319432 0.2878673 0.7905866 0.8677571 1.1452228 0.6470484 0.640953 0.7046843
1.092363 0.63030267 0.79057026 0.5762387 0.84480023 0.6483699 0.58424294 0.72673285
1.2052158 1.0532537 0.40466973 0.8189995 0.68359584 0.34486592 0.5488208 0.58007586
0.7957708 1.0123259 0.83229184 0.5568015 0.80287236 0.64158404 0.731592 0.5721241
0.15083407 0.11523546 0.083821535 0.111583985 0.09624762 0.21434909 0.11742817 0.5338773
0.14299436 0.090907544 0.08685835 0.25345966 0.16319394 0.11737392 0.104822956 0.090559855
0.31817898 0.31086546 0.0723759 0.0838107 0.077740535 0.27146724 0.21629032 0.1451672
0.20616756 0.16214342 0.070360705 0.39498723 0.06993616 0.07467914 0.49661463 0.2153918
0.04912293 0.05755025 0.12320367 0.12646182 0.25317088 0.10574647 0.09282602 0.09836645
0.24599938 0.0957665 0.18400393 0.10701756 0.24425225 0.167531 0.094671205 0.11284388
0.39868414 0.27483463 0.071025476 0.12950224 0.14774252 0.07174136 0.12441303 0.08714613
0.17767112 0.15720335 0.12271463 0.079870984 0.1270549 0.10701719 0.11402409 0.09232723

convs.1.bn1.running_var f4 [128]
00000000: 5823 dd3e e280 a23e d07d 293f 1c60 823e
00000010: bebb 6b3e 96e3 dc3e f423 b83e 6f23 9b3f
00000020: bf46 773f dcad 3f3f 8601 cf3e 9a4f 583f
00000030: 097b 5e3e 5d68 fd3e 7749 533f 0fad f13e
00000040: 5190 923f a547 e93f f5e3 393e dcf4 793e
00000050: 0ce8 003f 56cf 1b40 68bb 2540 ebc7 163f
00000060: 90d6 743f 928a a03f 8309 913e a116 743f
00000070: a56a 083e ae77 513e 8d1b 5e3f 0ab2 9a3f
00000080: d411 5a3d 41e5 223d 58a6 5b3f 9993 883f
00000090: de3f d23f f774 6b3e 0fae af3e 219f 0b3f
000000a0: bc1f 9940 f313 193f 7f9d ca3e 109d e83e
000000b0: 89d5 b93e b86f ab3e d76a d03e be87 cb3e
000000c0: 9bf3 c83f 27c5 753f 3898 763d 3ec0 443f
000000d0: dadb 993e 5571 e93e 97e1 053f 76bd 653e
000000e0: 1779 663f 2615 b13f 87ce 923f f35a 913e
000000f0: 808a c03e 0e96 d43e 06b4 3c3f 7da8 303f
00000100: 4c6b 623e e258 0c3e 8b67 243e d616 133e
00000110: 91d4 e63d 7872 023f c50b 553e 0b81 3e40
00000120: 6232 8c3e 4738 203e c8ef e43d d460 5b3f
00000130: 7aa0 8d3e c98c 333e 6fcb 5c3e 76be 003e
00000140: cdc4 a73f d2f8 ca3f 11e9 823d b4f1 b73d
00000150: 8ca2 173e a0d5 a83f 557e 953f 7bf2 9b3e
00000160: 7957 0e3f 7503 153f 6542 033e 24ab e73f
00000170: a1aa 593d 8e37 973d f999 1740 60e0 393f
00000180: 0dbb fc3c b7e0 2c3d 43f9 653e f515 8b3e
00000190: 2536 713f 0d41 013e 0cbf e63d a9f0 153e
000001a0: 9dd7 3a40 48be 1b3e e03a d23e 45ea 1e3e
000001b0: b35b 0f3f 397a ba3e 4ad4 f53d ed5c 173e
000001c0: 0b99 2540 6ce9 7d3f e3ce 7f3d f5ef 8b3e
000001d0: 175d 623e 55fa ec3d 874e 8b3e f9bb b53d
000001e0: 611c 2c3f 8739 bc3e 443f 893e 5198 b03d
000001f0: 6ae0 463e 1af0 1f3e cb68 463e 1a3b 1d3e
0.43191028 0.31738955 0.662076 0.2546395 0.23020837 0.43142384 0.3596493 1.2120188
0.96592325 0.74874663 0.4043085 0.8449646 0.21726622 0.49493685 0.82533973 0.47202346
1.1450292 1.8224989 0.18153365 0.24409813 0.50354075 2.4345298 2.5895634 0.588988
0.95639896 1.2542288 0.2832757 0.9534703 0.13321932 0.2045581 0.8676079 1.2085583
0.05323966 0.039769415 0.85800695 1.0670043 1.6425741 0.22993837 0.34312484 0.54539686
4.785124 0.59796065 0.39573285 0.4543233 0.36295727 0.33483672 0.40706512 0.39752
1.5699342 0.96003956 0.06020376 0.7685584 0.30050546 0.45594278 0.5229735 0.22435555
0.9002852 1.3834579 1.1469277 0.283897 0.37605667 0.41520733 0.73712194 0.6900709
0.22111243 0.13705781 0.16055124 0.1436418 0.112710126 0.50955915 0.20805271 2.9766262
0.2738219 0.15646468 0.11178547 0.85694623 0.27661496 0.17534174 0.21561979 0.12572655
1.3106934 1.5857184 0.0639211 0.08981648 0.148081 1.3190193 1.1679178 0.30458435
0.5560222 0.582084 0.12818296 1.8099103 0.05314124 0.07383643 2.3687727 0.72607994
0.030850912 0.042206492 0.22458367 0.2716519 0.94223243 0.12622471 0.11266908 0.14642586
2.91941 0.15209305 0.41060543 0.15519054 0.55999297 0.36421373 0.120033816 0.14781542
2.587466 0.991843 0.062453162 0.2733151 0.22105823 0.115711845 0.2720835 0.088737436
0.672308 0.3676264 0.2680608 0.08622802 0.19421545 0.15618935 0.19375913 0.15354577

convs.1.bn2.weight f4 [64]
00000000: e25f 563f d224 5e3f e8b4 973f 8813 723f
00000010: 95df 6c3f f56b 973f d545 6b3f 250a b03f
00000020: 0c5e 893f bb88 aa3f aff2 963f 21f3 7c3f
00000030: 0009 753f 91bd 863f a885 a33f 5116 843f
00000040: 77fd ae3f bea4 dc3f 63e6 723f 3adf 813f
00000050: a5cf a23f 503f c13f 8ff4 d93f ea42 863f
00000060: 834e 8a3f 6650 c53f 65c6 f93f 8e3a 943f
00000070: 7551 723f 887b 583f b493 9a3f 9929 7d3f
00000080: 449a 7b3f bfc7 1540 83f3 913f 725a 913f
00000090: baf1 b03f 48a6 553f 769a 913f 0d84 ab3f
000000a0: bfd1 4140 cbfa 9a3f f2db 543f 68f0 853f
000000b0: 43f4 713f 455e 5a3f 11f2 863f a48f 873f
000000c0: c4a5 c03f b3f2 9c3f 33ef 723f ec76 8e3f
000000d0: fa1e 363f d27f 913f 4a43 8c3f b74d 563f
000000e0: aef3 853f d2e6 a63f 8676 ad3f f1fb 893f
000000f0: cdd4 7c3f a45b 583f 13ec 9c3f 056a a63f
0.83740056 0.86774933 1.1852083 0.9456105 0.9252866 1.1829821 0.9190343 1.3753096
1.0731826 1.3322977 1.1792811 0.98808485 0.9571686 1.0526601 1.2775164 1.031931
1.3671101 1.7237775 0.9488279 1.0146248 1.2719618 1.5097446 1.7027758 1.048917
1.080521 1.5415161 1.951367 1.158037 0.94655544 0.84563494 1.2076325 0.988916
0.98282266 2.3403165 1.1402439 1.1355727 1.3823769 0.8345685 1.1375263 1.3399674
3.028427 1.2107786 0.8314811 1.0463991 0.9451334 0.85300094 1.0542623 1.0590711
1.5050588 1.2261566 0.9489624 1.1130042 0.71141016 1.1367133 1.0958035 0.83712333
1.046499 1.3039191 1.3551795 1.0780011 0.9876221 0.8451483 1.2259544 1.3001105

convs.1.bn2.bias f4 [64]
00000000: e1a7 08be c298 ddbd 287b 8fbe bdb8 67bd
00000010: 177a aabd d804 413d 9604 e6bd 7484 3d3e
00000020: 397b 94bd 3fc1 34be 3360 8abc 1c74 21be
00000030: 3cad 70bd c1b3 7c3b 486c 4cbe fffd d2bd
00000040: e698 6f3d 48c6 a73b 5b58 15be 1343 2ebe
00000050: 6f5d b7be 298a 7f3d fa09 533d 4538 70bd
00000060: f09f 05bd 6a4d 093c 73cc dbbc 8e6f 0dbc
00000070: d10a 30bd 79cd 10be 1dcc 663d 4733 f1bd
00000080: 31ef 87be 4fd3 d5be a2c4 9ebd b597 c8bd
00000090: 7885 1ebd 2027 98bd 8b17 c33c a1be 063d
000000a0: 166c 023e 3718 00bd ae2d d9bd 6285 3ebe
000000b0: f3c5 adbd 17ab eabd 10c2 05be cbe4 50bd
000000c0: 2916 0bbd 406b de3b 2fcb 32be bb39 94bd
000000d0: 518a 23be e2da 99be 6531 a4bd ff16 e4bd
000000e0: d669 f0bd e61f 58bc eac9 b9bc 1ef2 63bd
000000f0: 5325 9e3c 4da1 88be 0f27 adbc 5dfc e6bd
-0.1334529 -0.10820152 -0.28023648 -0.056572665 -0.08324068 0.04712376 -0.112313434 0.18507558
-0.07250065 -0.17651843 -0.016891574 -0.15766948 -0.05875896 0.003855929 -0.19963181 -0.10302352
0.058495425 0.0051200725 -0.14584486 -0.17017774 -0.35813472 0.06238762 0.051523186 -0.058647413
-0.03262323 0.008380273 -0.026830887 -0.008632554 -0.042979065 -0.14140882 0.056347 -0.117773585
-0.26549676 -0.41762778 -0.077523485 -0.09794561 -0.038701504 -0.074293375 0.023814937 0.03289664
0.12736544 -0.031273093 -0.10604416 -0.18605569 -0.084850214 -0.11458414 -0.1306231 -0.050999444
-0.03395668 0.0067876875 -0.17460321 -0.07237574 -0.15970732 -0.30049807 -0.08017234 -0.11137199
-0.117389366 -0.013191199 -0.022679288 -0.055650823 0.019304907 -0.26685563 -0.021136789 -0.11278603

convs.1.bn2.running_mean f4 [64]
00000000: b5a8 8d40 9033 8540 1e0e de3f ba5f 8e40
00000010: 875f 9a40 c302 2241 81f4 7140 323a a340
00000020: 2fe9 2940 053d 4240 7b49 5340 6a4c 7540
00000030: 59b0 f740 b154 9040 2676 db3f 87c5 6740
00000040: fbfc 2541 e1a6 1240 ecc1 7340 1bac 2140
00000050: 8e5c 0540 8fde ec3f 1a92 0e40 f481 8540
00000060: f670 5d40 204c 0540 441d 6e3e 8c27 9640
00000070: e02d b040 b31d 5f40 8321 d840 6dd5 2f40
00000080: 79c2 b33f 5071 333d 9ade 2d40 8a2b 3540
00000090: 2c67 0b40 0053 b540 a42f 8340 dfef 5540
000000a0: e269 763f 22f3 2540 b791 9f40 b0eb 4440
000000b0: 3fae 6c40 fa09 8f40 ccb5 2d40 7ef5 9a40
000000c0: ae86 ef3f ffee 1141 39d1 0740 248d 5140
000000d0: 7c76 9040 bc2d c23f 64c1 3540 0eec 9d40
000000e0: 5cc8 4b40 f609 2940 c691 2340 992f 4940
000000f0: 4ac7 b240 af21 1740 964c 2b40 7ddf 4b40
4.426844 4.1625443 1.7348058 4.4491854 4.824161 10.125674 3.7805483 5.100854
2.6548574 3.0349743 3.30136 3.832789 7.740277 4.5103383 1.7145431 3.621431
10.374263 2.2914355 3.808711 2.5261295 2.083774 1.850542 2.2276673 4.1721134
3.4600196 2.0827713 0.23253351 4.6923275 5.5056 3.4861877 6.754091 2.7474015
1.4043723 0.043809235 2.7167115 2.8307824 2.178172 5.666382 4.0995655 3.3427656
0.96255314 2.5929646 4.9865375 3.0768852 3.6981351 4.469968 2.714221 4.8424673
1.8712976 9.120849 2.122145 3.2742395 4.5144634 1.5170207 2.8399286 4.9350653
3.184104 2.641233 2.5557723 3.1435301 5.5868273 2.361431 2.6765494 3.1855156

convs.1.bn2.running_var f4 [64]
00000000: 9c0f 2941 4f46 d040 5a45 4840 796c 4741
00000010: e072 8541 a9c1 4b42 fe98 2e41 2fdf 0241
00000020: 8676 2b41 6740 1941 aa0a 8641 012f b640
00000030: 1486 0542 dcb7 4c41 9742 3940 1bf2 f740
00000040: cb08 8842 327f ff40 a59b 8841 7b33 b940
00000050: c9fe 4c40 110b 0341 5f8f 4141 d543 3e41
00000060: a35f 7e41 4396 b641 7042 a93d 040a 5341
00000070: c8c0 e940 c92d d240 a19e 9241 3dfb 0941
00000080: 5b56 0c3e 684f 173a c0a4 3941 3b22 b040
00000090: 0055 9f41 e0a5 4e41 e2de 8641 9313 a941
000000a0: 59b8 cc3f 27d9 4341 0a27 6841 c190 e840
000000b0: d434 2b41 147d 3541 e60c 6541 97a7 8541
000000c0: 0ba5 b441 77ad 7c42 a237 2240 6c7c e740
000000d0: b212 e240 113f 3240 75bf 2c41 29b5 7741
000000e0: 7c4e 5d41 462c 6f41 7247 8741 7552 4841
000000f0: 50b7 5041 69f9 9d40 0d59 4b41 26d7 1041
10.566311 6.5085826 3.129233 12.463983 16.681091 50.93912 10.912352 8.179488
10.716436 9.578223 16.755207 5.693238 33.380936 12.794888 2.8946893 7.748304
68.01717 7.984277 17.075998 5.787534 3.2030509 8.190202 12.097503 11.891561
15.898349 22.82337 0.08264625 13.189945 7.304783 6.568089 18.327456 8.623837
0.13704817 0.00057720253 11.602722 5.5041785 19.916504 12.915497 16.85883 21.134558
1.5993758 12.240516 14.509531 7.26767 10.7003975 11.343037 14.315649 16.706831
22.580587 63.1694 2.5346456 7.233938 7.064782 2.7850993 10.796742 15.481729
13.831661 14.948309 16.909885 12.520131 13.044754 4.9366956 12.709241 9.052526

convs.2.bn1.weight f4 [128]
00000000: 4d23 0240 681c 893f 300f 9b3f 4d6d 0440
00000010: 0bca 2c40 3d7d 3c3f 0270 b13f 1090 5f40
00000020: eb2b 0d40 9341 0a40 74d8 3340 c52b a73f
00000030: 93f3 803f 7b49 1740 2268 9d3f 8039 ee3f
00000040: 4162 793f 4207 3440 b9a3 4240 f9b8 c03f
00000050: 5eb8 ab3f b189 3140 18e6 1e40 4d37 f53f
00000060: 9955 be3f f84c 5b3f ce6f ac3f 7cef ef3f
00000070: 0a61 943f 5edc e73f 3db2 1e40 004b d53f
00000080: 2308 ca3f e689 2e40 86cd 2040 46d5 b93f
00000090: a409 eb3f df72 1140 5c84 3740 2f30 5840
000000a0: ac10 0640 16d1 3340 288e 883f 05f1 0140
000000b0: def7 c93f 98e9 593f 046a 2d40 bfdd 2740
000000c0: 670f 0f40 bbcd 9e3f 5494 7e3f be7c d43f
000000d0: c2f3 9c3f 5227 a23f a73b e23f 559c 1a40
000000e0: 2334 c73f 9297 3540 b50a 5640 a184 2940
000000f0: ad12 2040 ccf8 a83f 911c 2c40 9a08 0140
00000100: 82a4 2abe 0bc7 563f de1b a53d 0ca1 db3d
00000110: d073 933d 7fd5 0840 4f2b 9e3e 964d afbe
00000120: 750a 013e f17d 893c efa6 353e f46c 7ebe
00000130: 93db ca3f 90ed 7a3d f8f4 1c3d e01c 28bd
00000140: 0dee 0940 d328 30be 4973 863e 4de7 863d
00000150: 8f21 0bbd ebc3 dabe 1e12 95bf 087d 313f
00000160: 570e 8c3f 0853 bb3f 7ffb 093e 2271 f23d
00000170: 0104 9c3f b590 073e 40d6 3a3d 9bb7 c8bd
00000180: 6042 e0bd 49fd 1bbd 861e 5e3e 992e 473d
00000190: bfa7 893f 43c7 1e3e b29e 0e3c 861b 553e
000001a0: 83d6 a3bd 153a e03d b24b 883f f613 cfbd
000001b0: c574 273f 2e60 8a3f 2a5c 383e 3d1a 40bd
000001c0: 5acd 9a3d a784 f73f 7bcd 573f e5f7 42be
000001d0: 1a01 0d3f 6021 553d 501b a6be f4df 0f3e
000001e0: 7af8 5f3e 82b0 373e 85ca 8d3e 0b01 fa3e
000001f0: 50d0 553e a174 173f 5290 5a3e 8e26 4c3c
2.0334046 1.0711794 1.211401 2.0691712 2.6998317 0.736286 1.3862307 3.4931679
2.2058055 2.1602523 2.8100863 1.3060232 1.0074333 2.36386 1.2297404 1.8611298
0.9741555 2.812943 3.0412428 1.5056449 1.3415639 2.774029 2.4827938 1.9157501
1.4869872 0.8566432 1.347162 1.874496 1.1592114 1.8114126 2.4796288 1.6663513
1.5783733 2.7271667 2.5125442 1.4518211 1.8362317 2.2726362 2.8674536 3.377941
2.0947676 2.8096366 1.0668383 2.0303357 1.5778768 0.8512206 2.7095957 2.6229093
2.235315 1.2406534 0.9944508 1.6600568 1.2261889 1.266825 1.7674454 2.4157917
1.5562786 2.837376 3.3444035 2.64872 2.5011399 1.3200927 2.6892436 2.01615
-0.16664317 0.83897465 0.08061956 0.10724077 0.07199824 2.1380308 0.30892417 -0.3423888
0.12601645 0.016783686 0.17739461 -0.2484625 1.5848259 0.061261714 0.038319558 -0.041043162
2.1551545 -0.17203073 0.2625983 0.06587086 -0.03396755 -0.427276 -1.1646154 0.6933141
1.0941876 1.4634714 0.13474844 0.118379846 1.2188722 0.13238795 0.04561448 -0.09800645
-0.1095016 -0.03808335 0.21691331 0.048628423 1.0754317 0.155057 0.008704828 0.2081128
-0.07999899 0.10948578 1.06481 -0.10111229 0.6541255 1.0810602 0.18003908 -0.046900023
0.07558699 1.9337357 0.84297913 -0.19039877 0.55079806 0.052033782 -0.32442713 0.14050275
0.2187213 0.17938426 0.27693573 0.4882892 0.20880246 0.59162337 0.21344116 0.012460364

convs.2.bn1.bias f4 [128]
00000000: 3874 ab3d 534d 2d3e dcd4 05c0 75fb 3c3e
00000010: f05f fa3e dd18 9c3e e636 9dbe fa83 b33f
00000020: 4001 84bf 5529 a4bf 3b9f 3abf 8f7a debe
00000030: 195b 643e f035 863e d37f eabf 5faa 17bf
00000040: 6679 013f 2170 5cbf bb26 86be b4fe 9bbf
00000050: 2608 d3bf 6816 a4bf b18a c3bf 0044 8c3e
00000060: 2893 a4be 16e3 ffbf 80d3 2abf 7d57 2f3f
00000070: cca5 853f b5a6 d5be e848 9f3f a8be edbe
00000080: 817d 21bf 7e0d 95c0 c5dc 8bbf ec3d 35bf
00000090: 77ec 5fbf e3bd 563f c1fb 94be 283e 96bf
000000a0: fde9 ffbf eea2 a5bf 51a0 d13d 0741 4fbf
000000b0: 6026 10bd c530 9fbd 861d adbf a2af 5c3e
000000c0: 6dca f2bf b858 963e 7dfd 90be 489c 0fbf
000000d0: 285a a73d 5f55 15c0 30cb 46bf 619b f53e
000000e0: b98b f0be 0486 b7bf 8b00 d2bf 2115 3abf
000000f0: 0918 a43f e1bb 1abf 194d 9fbf 6480 9abf
00000100: ef95 e93e 4995 2b3e dac9 3d3f 8155 e33e
00000110: 774a 053f a173 de3e beb4 a03e 0b53 013f
00000120: dec7 dd3e e299 593f 3735 073f aa1c 143f
00000130: 47c8 b63e 3fc7 043f 7b93 233f cea6 163f
00000140: bd90 323f a93b 773e b524 eb3e b998 cb3e
00000150: 5a11 ec3e 0b86 cd3e 444a 3d3f 7f36 c4bc
00000160: 965a 96be 62af fdbf 3ae0 01bf f1a7 203f
00000170: ad82 133e 1410 bf3e 0be3 503f 666b 9b3e
00000180: 951d 58bd ca97 84be b4f3 ed3e fb0e 023f
00000190: 60ce 98bf ad38 0a3f 292c 1d3f 4240 373f
000001a0: e13c 643f c411 f83e c54b d03d de8e 013f
000001b0: 3c6d 573e f92d 12bd 57b2 083f fd82 193f
000001c0: 6556 3a3e 6c72 453f b058 58bf ffec 2a3f
000001d0: 84fb 5a3e 084d 253f a442 313e a497 183f
000001e0: 8edd 653f 1ff4 153f dc9b 223f 16b0 a33e
000001f0: 7277 ff3e c69f 733d 5889 033f 3c6d 513f
0.08371776 0.16924028 -2.091117 0.18455298 0.4890132 0.3048772 -0.30705947 1.4024651
-1.0312881 -1.2825114 -0.72899216 -0.4345288 0.22300376 0.26213026 -1.8320259 -0.5924434
0.50575864 -0.86108595 -0.26201424 -1.2187104 -1.6486862 -1.2819338 -1.52767 0.2739563
-0.3214352 -1.9991176 -0.66728973 0.6849287 1.0441222 -0.4172875 1.2444124 -0.46434522
-0.6308213 -4.657897 -1.0926749 -0.7079761 -0.8747019 0.83883494 -0.29098323 -1.1737719
-1.9993283 -1.2940347 0.10235656 -0.809586 -0.035192847 -0.07772974 -1.3524635 0.21551374
-1.8968025 0.29364562 -0.28318396 -0.5609784 0.08171493 -2.3333356 -0.7765379 0.47970107
-0.469816 -1.4337773 -1.6406416 -0.7268849 1.2819835 -0.6044293 -1.2445403 -1.2070432
0.45622203 0.16756167 0.74136126 0.44401172 0.5206675 0.43447593 0.31387895 0.5051734
0.4331655 0.8500043 0.52815574 0.5785624 0.35699674 0.51866525 0.6389691 0.58848274
0.69752103 0.24143852 0.45926443 0.39764956 0.46106988 0.4014133 0.73941445 -0.023951767
-0.29365987 -1.9819148 -0.5073277 0.6275626 0.14405318 0.37316954 0.8159644 0.30355376
-0.052762587 -0.25897056 0.46474993 0.5080411 -1.1937981 0.5399273 0.6139551 0.71582425
0.89155394 0.48451054 0.10170702 0.50608623 0.21037763 -0.035688374 0.53397125 0.599655
0.1819702 0.7712772 -0.84510326 0.6676788 0.21385008 0.64570665 0.17310578 0.59606385
0.8979119 0.58575624 0.6351907 0.3197028 0.49895817 0.059478544 0.51381445 0.81807303
